…
2020-06-14 13:29:11.733926: I tensorflow/core/common_runtime/gpu/gpu_device.cc:1241] Created TensorFlow device (/job:localhost/replica:0/task:0/device:GPU:0 with 28652 MB memory) -> physical GPU (device: 0, name: GRID V100D-32Q, pci bus id: 0000:02:00.0, compute capability: 7.0)
2020-06-14 13:29:11.734297: I tensorflow/core/common_runtime/process_util.cc:147] Creating new thread pool with default inter op setting: 12. Tune using inter_op_parallelism_threads for best performance.
Model: "model"
__________________________________________________________________________________________________
Layer (type)                    Output Shape         Param #     Connected to                     
==================================================================================================
input_1 (InputLayer)            [(None, 101, 101, 1) 0                                            
__________________________________________________________________________________________________
conv2d (Conv2D)                 (None, 51, 51, 64)   3200        input_1[0][0]                    
__________________________________________________________________________________________________
batch_normalization (BatchNorma (None, 51, 51, 64)   256         conv2d[0][0]                     
__________________________________________________________________________________________________
activation (Activation)         (None, 51, 51, 64)   0           batch_normalization[0][0]        
__________________________________________________________________________________________________
max_pooling2d (MaxPooling2D)    (None, 26, 26, 64)   0           activation[0][0]                 
__________________________________________________________________________________________________
conv2d_1 (Conv2D)               (None, 26, 26, 64)   36928       max_pooling2d[0][0]              
__________________________________________________________________________________________________
batch_normalization_1 (BatchNor (None, 26, 26, 64)   256         conv2d_1[0][0]                   
__________________________________________________________________________________________________
activation_1 (Activation)       (None, 26, 26, 64)   0           batch_normalization_1[0][0]      
__________________________________________________________________________________________________
conv2d_2 (Conv2D)               (None, 26, 26, 64)   36928       activation_1[0][0]               
__________________________________________________________________________________________________
add (Add)                       (None, 26, 26, 64)   0           max_pooling2d[0][0]              
                                                                 conv2d_2[0][0]                   
__________________________________________________________________________________________________
batch_normalization_2 (BatchNor (None, 26, 26, 64)   256         add[0][0]                        
__________________________________________________________________________________________________
activation_2 (Activation)       (None, 26, 26, 64)   0           batch_normalization_2[0][0]      
__________________________________________________________________________________________________
conv2d_3 (Conv2D)               (None, 26, 26, 64)   36928       activation_2[0][0]               
__________________________________________________________________________________________________
batch_normalization_3 (BatchNor (None, 26, 26, 64)   256         conv2d_3[0][0]                   
__________________________________________________________________________________________________
activation_3 (Activation)       (None, 26, 26, 64)   0           batch_normalization_3[0][0]      
__________________________________________________________________________________________________
conv2d_4 (Conv2D)               (None, 26, 26, 64)   36928       activation_3[0][0]               
__________________________________________________________________________________________________
add_1 (Add)                     (None, 26, 26, 64)   0           add[0][0]                        
                                                                 conv2d_4[0][0]                   
__________________________________________________________________________________________________
batch_normalization_4 (BatchNor (None, 26, 26, 64)   256         add_1[0][0]                      
__________________________________________________________________________________________________
activation_4 (Activation)       (None, 26, 26, 64)   0           batch_normalization_4[0][0]      
__________________________________________________________________________________________________
conv2d_5 (Conv2D)               (None, 13, 13, 128)  73856       activation_4[0][0]               
__________________________________________________________________________________________________
batch_normalization_5 (BatchNor (None, 13, 13, 128)  512         conv2d_5[0][0]                   
__________________________________________________________________________________________________
activation_5 (Activation)       (None, 13, 13, 128)  0           batch_normalization_5[0][0]      
__________________________________________________________________________________________________
conv2d_7 (Conv2D)               (None, 13, 13, 128)  8320        add_1[0][0]                      
__________________________________________________________________________________________________
conv2d_6 (Conv2D)               (None, 13, 13, 128)  147584      activation_5[0][0]               
__________________________________________________________________________________________________
add_2 (Add)                     (None, 13, 13, 128)  0           conv2d_7[0][0]                   
                                                                 conv2d_6[0][0]                   
__________________________________________________________________________________________________
batch_normalization_6 (BatchNor (None, 13, 13, 128)  512         add_2[0][0]                      
__________________________________________________________________________________________________
activation_6 (Activation)       (None, 13, 13, 128)  0           batch_normalization_6[0][0]      
__________________________________________________________________________________________________
conv2d_8 (Conv2D)               (None, 13, 13, 128)  147584      activation_6[0][0]               
__________________________________________________________________________________________________
batch_normalization_7 (BatchNor (None, 13, 13, 128)  512         conv2d_8[0][0]                   
__________________________________________________________________________________________________
activation_7 (Activation)       (None, 13, 13, 128)  0           batch_normalization_7[0][0]      
__________________________________________________________________________________________________
conv2d_9 (Conv2D)               (None, 13, 13, 128)  147584      activation_7[0][0]               
__________________________________________________________________________________________________
add_3 (Add)                     (None, 13, 13, 128)  0           add_2[0][0]                      
                                                                 conv2d_9[0][0]                   
__________________________________________________________________________________________________
batch_normalization_8 (BatchNor (None, 13, 13, 128)  512         add_3[0][0]                      
__________________________________________________________________________________________________
activation_8 (Activation)       (None, 13, 13, 128)  0           batch_normalization_8[0][0]      
__________________________________________________________________________________________________
conv2d_10 (Conv2D)              (None, 7, 7, 256)    295168      activation_8[0][0]               
__________________________________________________________________________________________________
batch_normalization_9 (BatchNor (None, 7, 7, 256)    1024        conv2d_10[0][0]                  
__________________________________________________________________________________________________
activation_9 (Activation)       (None, 7, 7, 256)    0           batch_normalization_9[0][0]      
__________________________________________________________________________________________________
conv2d_12 (Conv2D)              (None, 7, 7, 256)    33024       add_3[0][0]                      
__________________________________________________________________________________________________
conv2d_11 (Conv2D)              (None, 7, 7, 256)    590080      activation_9[0][0]               
__________________________________________________________________________________________________
add_4 (Add)                     (None, 7, 7, 256)    0           conv2d_12[0][0]                  
                                                                 conv2d_11[0][0]                  
__________________________________________________________________________________________________
batch_normalization_10 (BatchNo (None, 7, 7, 256)    1024        add_4[0][0]                      
__________________________________________________________________________________________________
activation_10 (Activation)      (None, 7, 7, 256)    0           batch_normalization_10[0][0]     
__________________________________________________________________________________________________
conv2d_13 (Conv2D)              (None, 7, 7, 256)    590080      activation_10[0][0]              
__________________________________________________________________________________________________
batch_normalization_11 (BatchNo (None, 7, 7, 256)    1024        conv2d_13[0][0]                  
__________________________________________________________________________________________________
activation_11 (Activation)      (None, 7, 7, 256)    0           batch_normalization_11[0][0]     
__________________________________________________________________________________________________
conv2d_14 (Conv2D)              (None, 7, 7, 256)    590080      activation_11[0][0]              
__________________________________________________________________________________________________
add_5 (Add)                     (None, 7, 7, 256)    0           add_4[0][0]                      
                                                                 conv2d_14[0][0]                  
__________________________________________________________________________________________________
batch_normalization_12 (BatchNo (None, 7, 7, 256)    1024        add_5[0][0]                      
__________________________________________________________________________________________________
activation_12 (Activation)      (None, 7, 7, 256)    0           batch_normalization_12[0][0]     
__________________________________________________________________________________________________
conv2d_15 (Conv2D)              (None, 4, 4, 512)    1180160     activation_12[0][0]              
__________________________________________________________________________________________________
batch_normalization_13 (BatchNo (None, 4, 4, 512)    2048        conv2d_15[0][0]                  
__________________________________________________________________________________________________
activation_13 (Activation)      (None, 4, 4, 512)    0           batch_normalization_13[0][0]     
__________________________________________________________________________________________________
conv2d_17 (Conv2D)              (None, 4, 4, 512)    131584      add_5[0][0]                      
__________________________________________________________________________________________________
conv2d_16 (Conv2D)              (None, 4, 4, 512)    2359808     activation_13[0][0]              
__________________________________________________________________________________________________
add_6 (Add)                     (None, 4, 4, 512)    0           conv2d_17[0][0]                  
                                                                 conv2d_16[0][0]                  
__________________________________________________________________________________________________
batch_normalization_14 (BatchNo (None, 4, 4, 512)    2048        add_6[0][0]                      
__________________________________________________________________________________________________
activation_14 (Activation)      (None, 4, 4, 512)    0           batch_normalization_14[0][0]     
__________________________________________________________________________________________________
conv2d_18 (Conv2D)              (None, 4, 4, 512)    2359808     activation_14[0][0]              
__________________________________________________________________________________________________
batch_normalization_15 (BatchNo (None, 4, 4, 512)    2048        conv2d_18[0][0]                  
__________________________________________________________________________________________________
activation_15 (Activation)      (None, 4, 4, 512)    0           batch_normalization_15[0][0]     
__________________________________________________________________________________________________
conv2d_19 (Conv2D)              (None, 4, 4, 512)    2359808     activation_15[0][0]              
__________________________________________________________________________________________________
add_7 (Add)                     (None, 4, 4, 512)    0           add_6[0][0]                      
                                                                 conv2d_19[0][0]                  
__________________________________________________________________________________________________
batch_normalization_16 (BatchNo (None, 4, 4, 512)    2048        add_7[0][0]                      
__________________________________________________________________________________________________
activation_16 (Activation)      (None, 4, 4, 512)    0           batch_normalization_16[0][0]     
__________________________________________________________________________________________________
average_pooling2d (AveragePooli (None, 1, 1, 512)    0           activation_16[0][0]              
__________________________________________________________________________________________________
flatten (Flatten)               (None, 512)          0           average_pooling2d[0][0]          
__________________________________________________________________________________________________
dense (Dense)                   (None, 1)            513         flatten[0][0]                    
==================================================================================================
Total params: 11,181,569
Trainable params: 11,173,761
Non-trainable params: 7,808
__________________________________________________________________________________________________
None
Model loaded: resnet
/home/s2701782/.local/lib/python3.7/site-packages/pyfits/__init__.py:22: PyFITSDeprecationWarning: PyFITS is deprecated, please use astropy.io.fits
…
